rbf_model_weights.pth (torch, 25144 bytes, 53 tensors)

cor_vae_rbf.vae_rbf_x.encoder_rbf.rbf_input.centers f4 [3, 3]
0	0xbeb05686	-0.34441012
1	0x3e0c88f6	0.13724121
2	0xbfeaa0d3	-1.833033
3	0x3e263f76	0.16235146
4	0xbd64f426	-0.0558969
5	0xbf94ee8e	-1.1635301
6	0x3ed13a73	0.40864906
7	0x3f2f433b	0.6846196
8	0x3f059fdb	0.52197045

cor_vae_rbf.vae_rbf_x.encoder_rbf.rbf_input.widths f4 [3]
0	0xbfab9f58	-1.3408003
1	0xbf8a19b0	-1.0789089
2	0x3d2adca8	0.04171434

cor_vae_rbf.vae_rbf_x.encoder_rbf.hidden.weight f4 [3, 3]
0	0x3f8e23bd	1.1104656
1	0x3fa4c655	1.2873026
2	0x3cdd068c	0.02698066
3	0x3f97a414	1.1846948
4	0x3efae3d9	0.4900196
5	0x3e5e774f	0.217252
6	0xbf8f95d8	-1.1217604
7	0xbfbf2476	-1.4933002
8	0xbe99ddb3	-0.30051956

cor_vae_rbf.vae_rbf_x.encoder_rbf.hidden.bias f4 [3]
0	0xbf1c241d	-0.60992604
1	0x3eea2112	0.45728356
2	0x3eacd085	0.33752838

cor_vae_rbf.vae_rbf_x.encoder_rbf.rbf_hidden.centers f4 [3, 3]
0	0xbf7c2b7e	-0.98503864
1	0x3e6325d7	0.22182404
2	0x3e1217f5	0.14266951
3	0xbee9144f	-0.45523307
4	0x3f023ccc	0.5087402
5	0x3e66383a	0.22482386
6	0xbe1c4e40	-0.15264225
7	0xbf6cf55f	-0.92561907
8	0x3f2fb4b8	0.6863513

cor_vae_rbf.vae_rbf_x.encoder_rbf.rbf_hidden.widths f4 [3]
0	0xbf4eaf49	-0.80736214
1	0x3eb2ee55	0.34947458
2	0xbfbfd75a	-1.4987595

cor_vae_rbf.vae_rbf_x.encoder_rbf.fc_mean.weight f4 [1, 3]
0	0xbeb76f2c	-0.35827005
1	0xbf87abe0	-1.0599327
2	0xbf83822f	-1.0274104

cor_vae_rbf.vae_rbf_x.encoder_rbf.fc_log_var.weight f4 [1, 3]
0	0xbf4de1ae	-0.80422485
1	0xbf1a8b68	-0.6036897
2	0xbf10dbd6	-0.56585443

cor_vae_rbf.vae_rbf_x.decoder_rbf.rbf_hidden.centers f4 [3, 1]
0	0xbed14177	-0.40870258
1	0xbf27ed1e	-0.6559619
2	0x3f097f84	0.537102

cor_vae_rbf.vae_rbf_x.decoder_rbf.rbf_hidden.widths f4 [3]
0	0xbf864d2e	-1.0492303
1	0x3ea87629	0.3290265
2	0x3eefccd8	0.4683597

cor_vae_rbf.vae_rbf_x.decoder_rbf.fc_hidden.weight f4 [3, 3]
0	0xbe8f0c4a	-0.27939063
1	0xbe945603	-0.28971872
2	0xbddc8337	-0.10767215
3	0xbf09ea64	-0.53873277
4	0xbbd8639a	-0.0066036703
5	0xbc6a4ceb	-0.014300565
6	0x3ef9cc71	0.4878879
7	0x3eea799c	0.45795906
8	0xbecc2d04	-0.39878094

cor_vae_rbf.vae_rbf_x.decoder_rbf.fc_hidden.bias f4 [3]
0	0xbd352a8c	-0.04423003
1	0xbec58193	-0.3857542
2	0x3eab5d82	0.33469778

cor_vae_rbf.vae_rbf_x.decoder_rbf.rbf_output.centers f4 [3, 3]
0	0xbf88444d	-1.0645844
1	0xbd82dbf7	-0.06389611
2	0x3f62fdce	0.88668525
3	0x3f22016d	0.63283426
4	0x3f99a8c0	1.2004623
5	0x3f301753	0.6878559
6	0xbf119bb3	-0.56878203
7	0x3f1197fc	0.56872535
8	0x3d7dc818	0.061958402

cor_vae_rbf.vae_rbf_x.decoder_rbf.rbf_output.widths f4 [3]
0	0x3e05bff7	0.1306151
1	0xbf8787a8	-1.0588274
2	0xbf601cf3	-0.87544173

cor_vae_rbf.vae_rbf_x.decoder_rbf.fc_output.weight f4 [3, 3]
0	0x3ec181d5	0.37794366
1	0x3dca1684	0.09867576
2	0xbea056ea	-0.3131631
3	0x3ea8f4cd	0.32999268
4	0xbf00068d	-0.50009996
5	0xbe888caf	-0.26669833
6	0x3e935458	0.28775287
7	0x3ee105cf	0.43949744
8	0x3e9c38b1	0.30512002

cor_vae_rbf.vae_rbf_x.decoder_rbf.fc_output.bias f4 [3]
0	0x3ea0b321	0.31386665
1	0xbec04eaa	-0.37560016
2	0x3c7fcd16	0.015612861

cor_vae_rbf.vae_rbf_y.encoder_rbf.rbf_input.centers f4 [4, 4]
0	0xbecff68a	-0.40617782
1	0x3feb7949	1.8396388
2	0xbfa87d61	-1.3163263
3	0xbf96c912	-1.1780112
4	0x3eb4c04f	0.3530297
5	0x3f949596	1.160815
6	0xbf545c92	-0.8295375
7	0xbfa4a4c7	-1.2862786
8	0x3e7cbeb1	0.24682118
9	0xbc25b886	-0.010114795
10	0xbdbf0b9c	-0.09328386
11	0xbffcf327	-1.9761704
12	0xbe0ccc4f	-0.13749813
13	0x3e99e0db	0.30054364
14	0xbe9209a0	-0.28522968
15	0xbfe655fd	-1.7994992

cor_vae_rbf.vae_rbf_y.encoder_rbf.rbf_input.widths f4 [4]
0	0xbfb45bae	-1.4090478
1	0xbfa921a1	-1.3213388
2	0xbd119de5	-0.03555097
3	0xbfad5d61	-1.3544122

cor_vae_rbf.vae_rbf_y.encoder_rbf.hidden.weight f4 [4, 4]
0	0xbd26dc99	-0.040737722
1	0x3f485744	0.78258157
2	0xbe1efef0	-0.15526938
3	0x3f73a246	0.95169485
4	0x3eb79cc7	0.358618
5	0x3f00a8f1	0.50257784
6	0x3e4c6348	0.19959748
7	0x3f0675ec	0.52523685
8	0xbf421961	-0.75819975
9	0xbf4e0644	-0.8047831
10	0x3e5378c0	0.20651531
11	0xbeee8e10	-0.4659276
12	0xbedcb9e4	-0.43110573
13	0xbf2583fe	-0.6465453
14	0x3edba41c	0.42898643
15	0x3e1a5029	0.15069641

cor_vae_rbf.vae_rbf_y.encoder_rbf.hidden.bias f4 [4]
0	0xbf18ed8f	-0.59737486
1	0x3cd30294	0.025758065
2	0x3efed79c	0.49773872
3	0x3d42c59b	0.047551733

cor_vae_rbf.vae_rbf_y.encoder_rbf.rbf_hidden.centers f4 [4, 4]
0	0x3f38dd1d	0.7221239
1	0x3f899e17	1.075137
2	0xbf57fb1c	-0.8436754
3	0xbea9ed9f	-0.33189103
4	0xbf0b927d	-0.545204
5	0xbeee442d	-0.4653639
6	0xbfc39014	-1.5278344
7	0x3fc674d8	1.5504408
8	0xbf3fd515	-0.7493451
9	0xbf8061b8	-1.0029821
10	0x3f53e6c0	0.8277397
11	0x3e94d6f5	0.2907025
12	0xbeeabe2e	-0.4584822
13	0x3c89735a	0.016778637
14	0x3f477d40	0.7792549
15	0x3f845f0e	1.0341508

cor_vae_rbf.vae_rbf_y.encoder_rbf.rbf_hidden.widths f4 [4]
0	0xbf8139d4	-1.0095773
1	0xbe7cd6ce	-0.24691316
2	0xbf9f045d	-1.2423207
3	0xbf804b79	-1.0023032

cor_vae_rbf.vae_rbf_y.encoder_rbf.fc_mean.weight f4 [1, 4]
0	0x3f8d0621	1.1017495
1	0xbe00451c	-0.12526363
2	0xbf0960a3	-0.5366308
3	0xbf3dee54	-0.74191785

cor_vae_rbf.vae_rbf_y.encoder_rbf.fc_log_var.weight f4 [1, 4]
0	0xbeeb8043	-0.45996293
1	0xbeaa207c	-0.3322791
2	0xbee7e00c	-0.45288122
3	0x3bf7ea24	0.0075657535

cor_vae_rbf.vae_rbf_y.decoder_rbf.rbf_hidden.centers f4 [4, 1]
0	0xbf972b46	-1.1810081
1	0x3f0ae923	0.5426199
2	0x3d38460c	0.044988677
3	0xc015e5bb	-2.3421466

cor_vae_rbf.vae_rbf_y.decoder_rbf.rbf_hidden.widths f4 [4]
0	0xbf92abf6	-1.1458728
1	0x3f0b798d	0.54482347
2	0x3f3d963e	0.74057376
3	0x3d076b42	0.033061273

cor_vae_rbf.vae_rbf_y.decoder_rbf.fc_hidden.weight f4 [4, 4]
0	0x3ed38b30	0.4131713
1	0x3d444fb7	0.047927584
2	0x3f1148ac	0.56751513
3	0x3e937d32	0.28806454
4	0x3f01855c	0.50594115
5	0xbef52319	-0.4787834
6	0xbe967a30	-0.29390097
7	0x3e9cf610	0.3065648
8	0x3e68b73a	0.22726145
9	0x3d2f9ce8	0.042874247
10	0x3e643cd3	0.22288828
11	0xbec55da0	-0.38547993
12	0x3e44aadb	0.19205801
13	0xbf424cab	-0.75898236
14	0xbe8ebe1c	-0.27879417
15	0xbbbe0400	-0.0057988167

cor_vae_rbf.vae_rbf_y.decoder_rbf.fc_hidden.bias f4 [4]
0	0x3e952cde	0.29135793
1	0xbededc49	-0.4352744
2	0xbe2c1e25	-0.16808374
3	0x3ed8fcb5	0.423803

cor_vae_rbf.vae_rbf_y.decoder_rbf.rbf_output.centers f4 [4, 4]
0	0x3f499d11	0.7875529
1	0xbe8d5a53	-0.27607974
2	0x3ee07bc1	0.43844417
3	0x3ec44d82	0.38340384
4	0xbdcd5ce8	-0.10027486
5	0xbf9df402	-1.234009
6	0xbf37937e	-0.7170943
7	0xbe85238a	-0.26003677
8	0xbf93f6c3	-1.1559681
9	0x3ff00f68	1.8754702
10	0xbe5bc190	-0.21460557
11	0x3f404b41	0.7511483
12	0xbe5813be	-0.21101281
13	0x3fa2f83b	1.2732004
14	0x3dddc2e6	0.108281896
15	0x3f0be4c5	0.5464595

cor_vae_rbf.vae_rbf_y.decoder_rbf.rbf_output.widths f4 [4]
0	0xbee91e71	-0.45531037
1	0x3e09f539	0.13472451
2	0xbe82d628	-0.25554013
3	0xc0357470	-2.8352318

cor_vae_rbf.vae_rbf_y.decoder_rbf.fc_output.weight f4 [4, 4]
0	0xbf13a108	-0.5766759
1	0x3e1653f4	0.14680463
2	0x3eb7f48a	0.35928756
3	0xbd82a527	-0.063791566
4	0xbf0f5752	-0.55992615
5	0xbc02b600	-0.0079779625
6	0x3ee279b6	0.44233483
7	0x3befa58d	0.0073134364
8	0xbe07fded	-0.13280459
9	0x3db04b20	0.08608079
10	0x3e7c8390	0.24659562
11	0x3d7e73d5	0.062122185
12	0xbd215870	-0.03939098
13	0xbbd7f100	-0.0065900087
14	0x3a81b600	0.0009896159
15	0xbdfa5bdd	-0.12224553

cor_vae_rbf.vae_rbf_y.decoder_rbf.fc_output.bias f4 [4]
0	0x3e9765a4	0.29569733
1	0x3e78a39c	0.24281162
2	0x3cae4b72	0.02127621
3	0x3dd43f72	0.10363664

nn_coefficients.module_list.0.input_layer.weight f4 [3, 3]
0	0xbe899a42	-0.26875502
1	0xbe863470	-0.26211882
2	0x3e4029ec	0.18765992
3	0x3ec0a10c	0.3762287
4	0x3e778cd1	0.24174811
5	0xbeb7c8de	-0.35895437
6	0x3eb0d0d6	0.3453433
7	0x3dcd4b4b	0.100241266
8	0xbf0c4ca7	-0.5480446

nn_coefficients.module_list.0.input_layer.bias f4 [3]
0	0xbe33cdca	-0.17558971
1	0xbec4b919	-0.38422468
2	0xbe93f826	-0.2890026

nn_coefficients.module_list.0.hidden_layers.hidden_layers.0.fc.weight f4 [3, 3]
0	0x3e647b72	0.22312716
1	0x3e1e0079	0.15429868
2	0xbec6af29	-0.38805512
3	0xbb8388cd	-0.0040141107
4	0xbe6136f4	-0.21993619
5	0xbf07b25f	-0.5300655
6	0x3ed81883	0.422062
7	0x3eeba29c	0.460225
8	0xbf0c7d7a	-0.5487896

nn_coefficients.module_list.0.hidden_layers.hidden_layers.0.fc.bias f4 [3]
0	0x3ed12839	0.40851
1	0x3dd79d1a	0.105280116
2	0x3e93c6fa	0.28862745

nn_coefficients.module_list.0.output_layer.weight f4 [1, 3]
0	0x3f0e8ade	0.55680645
1	0x3eb7bfb6	0.3588845
2	0x3ed7c159	0.421397

nn_coefficients.module_list.0.sequential.0.weight f4 [3, 3]
0	0xbe899a42	-0.26875502
1	0xbe863470	-0.26211882
2	0x3e4029ec	0.18765992
3	0x3ec0a10c	0.3762287
4	0x3e778cd1	0.24174811
5	0xbeb7c8de	-0.35895437
6	0x3eb0d0d6	0.3453433
7	0x3dcd4b4b	0.100241266
8	0xbf0c4ca7	-0.5480446

nn_coefficients.module_list.0.sequential.0.bias f4 [3]
0	0xbe33cdca	-0.17558971
1	0xbec4b919	-0.38422468
2	0xbe93f826	-0.2890026

nn_coefficients.module_list.0.sequential.1.hidden_layers.0.fc.weight f4 [3, 3]
0	0x3e647b72	0.22312716
1	0x3e1e0079	0.15429868
2	0xbec6af29	-0.38805512
3	0xbb8388cd	-0.0040141107
4	0xbe6136f4	-0.21993619
5	0xbf07b25f	-0.5300655
6	0x3ed81883	0.422062
7	0x3eeba29c	0.460225
8	0xbf0c7d7a	-0.5487896

nn_coefficients.module_list.0.sequential.1.hidden_layers.0.fc.bias f4 [3]
0	0x3ed12839	0.40851
1	0x3dd79d1a	0.105280116
2	0x3e93c6fa	0.28862745

nn_coefficients.module_list.0.sequential.2.weight f4 [1, 3]
0	0x3f0e8ade	0.55680645
1	0x3eb7bfb6	0.3588845
2	0x3ed7c159	0.421397

nn_bias.module_list.0.input_layer.weight f4 [3, 3]
0	0x3dde5a7a	0.10857101
1	0xbee872d5	-0.4540011
2	0x3e81f5e4	0.25382912
3	0xbeef09e1	-0.46687225
4	0x3ea21718	0.31658244
5	0x3ee57e96	0.4482314
6	0x3e7f29e5	0.24918325
7	0xbee0157a	-0.43766385
8	0x3e5b72f5	0.21430571

nn_bias.module_list.0.input_layer.bias f4 [3]
0	0x3eae7e2f	0.34080645
1	0x3f03a745	0.5142711
2	0xbee72609	-0.45146206

nn_bias.module_list.0.hidden_layers.hidden_layers.0.fc.weight f4 [3, 3]
0	0x3ec4848b	0.38382372
1	0xbf025107	-0.5090489
2	0x3eb59971	0.3546863
3	0x3f0fb616	0.56137216
4	0xbeeac6ee	-0.45854896
5	0xbe87d00d	-0.26525918
6	0xbecdb58b	-0.4017757
7	0xbebc40fa	-0.36768323
8	0xbeffd94d	-0.49970475

nn_bias.module_list.0.hidden_layers.hidden_layers.0.fc.bias f4 [3]
0	0xbf0bcf9e	-0.54613674
1	0xbe24a09a	-0.1607689
2	0x3bbef971	0.0058280756

nn_bias.module_list.0.output_layer.weight f4 [1, 3]
0	0x3e153db4	0.14574319
1	0xbf0d5b1e	-0.5521716
2	0x3eb1a115	0.34693208

nn_bias.module_list.0.sequential.0.weight f4 [3, 3]
0	0x3dde5a7a	0.10857101
1	0xbee872d5	-0.4540011
2	0x3e81f5e4	0.25382912
3	0xbeef09e1	-0.46687225
4	0x3ea21718	0.31658244
5	0x3ee57e96	0.4482314
6	0x3e7f29e5	0.24918325
7	0xbee0157a	-0.43766385
8	0x3e5b72f5	0.21430571

nn_bias.module_list.0.sequential.0.bias f4 [3]
0	0x3eae7e2f	0.34080645
1	0x3f03a745	0.5142711
2	0xbee72609	-0.45146206

nn_bias.module_list.0.sequential.1.hidden_layers.0.fc.weight f4 [3, 3]
0	0x3ec4848b	0.38382372
1	0xbf025107	-0.5090489
2	0x3eb59971	0.3546863
3	0x3f0fb616	0.56137216
4	0xbeeac6ee	-0.45854896
5	0xbe87d00d	-0.26525918
6	0xbecdb58b	-0.4017757
7	0xbebc40fa	-0.36768323
8	0xbeffd94d	-0.49970475

nn_bias.module_list.0.sequential.1.hidden_layers.0.fc.bias f4 [3]
0	0xbf0bcf9e	-0.54613674
1	0xbe24a09a	-0.1607689
2	0x3bbef971	0.0058280756

nn_bias.module_list.0.sequential.2.weight f4 [1, 3]
0	0x3e153db4	0.14574319
1	0xbf0d5b1e	-0.5521716
2	0x3eb1a115	0.34693208

kernel.raw_lengthscale f4 [1, 3]
0	0x3eda97ff	0.4269409
1	0x3ea741d8	0.32667422
2	0xbeeb8652	-0.46000916
